information_stored.pth (torch, 4271 bytes, 6 tensors)

l1.0.weight f4 [8, 32]
000000 d6 e2 b2 3e 73 61 9d 3e 06 aa 1a be b5 3f e6 3e
       0.34938687 0.3073841 -0.15103921 0.4497048
000010 c1 bc 2a be 2f b2 8b 3e ff 6b 40 3e 38 98 6d 3e
       -0.16673566 0.2728438 0.18791197 0.23202598
000020 9e e8 d0 3e 9b 55 62 be 98 4f cf 3e 1f cb 0b be
       0.40802473 -0.22102968 0.40490413 -0.13651703
000030 5e ef 0f 3e a5 89 90 bd 57 98 e7 3d 2e b2 ba 3e
       0.14056155 -0.070575036 0.113083534 0.36464065
000040 40 65 65 3e 1d 45 67 bd fc 10 0a 3e 00 53 ff bb
       0.22401905 -0.056462396 0.13483042 -0.007791877
000050 c2 1f da be e1 3d fb bd 11 05 6f 3e 36 e0 47 3e
       -0.42602354 -0.12267662 0.23341776 0.19519123
000060 fe e0 79 be c2 5c 4c 3e cd a6 55 be 70 9c 72 3d
       -0.24402234 0.1995726 -0.2086441 0.05923122
000070 97 98 3f 3e 1d 94 4a 3e 6f 69 8e 3e a5 79 85 3e
       0.18710552 0.19783063 0.27814814 0.2606937
000080 aa cc a8 3e ca ff aa 3e a9 49 37 be 95 c9 b1 3e
       0.32968646 0.33398277 -0.17899193 0.34724107
000090 8a 22 0e be 90 4d 22 bd 29 2f ae 3e 39 c2 18 be
       -0.13880363 -0.03962475 0.34020355 -0.1491784
0000a0 90 ea ae 3c 38 f2 3d be e0 20 85 be 97 18 cd bd
       0.021352082 -0.1854943 -0.26001644 -0.10014456
0000b0 a9 4b a0 3e 2b 84 e7 3e 86 d6 82 3e b5 c2 75 be
       0.31307724 0.45218024 0.25554293 -0.24000056
0000c0 11 93 44 3e 00 fe 09 3e bf 5f e3 3e 15 c7 9a bd
       0.19196726 0.134758 0.44408986 -0.07557503
0000d0 db 35 ff be ac f9 95 3d 84 2e 36 be be 17 73 3e
       -0.49845776 0.07323012 -0.17791182 0.23739526
0000e0 36 d5 8b be 0c 40 c5 3e d6 2c a3 be 7b 8c 92 3c
       -0.27311105 0.38525426 -0.31870145 0.017889252
0000f0 84 01 22 be c8 3d 4d be 73 a1 a2 be fc 2e 5d be
       -0.1582089 -0.20043099 -0.317638 -0.21599954
000100 60 39 d8 3b 5b 77 16 be 65 35 92 ba 7d 41 86 3e
       0.0065986365 -0.14693968 -0.0011154829 0.2622184
000110 91 45 b2 bb aa c3 c1 3e a0 ec 25 3c b9 a5 44 3e
       -0.005440422 0.37844592 0.010127217 0.19203843
000120 29 a8 a8 3e a9 4b 1c 3b 57 6c d8 3e 2f 76 bf bd
       0.32940796 0.0023848808 0.42270157 -0.093487136
000130 a1 19 83 3e 50 41 2f 3e 57 80 ca 3e a1 0f 04 3e
       0.2560549 0.17114758 0.3955104 0.12896587
000140 7e 1f 80 3e 00 16 18 3e 5c d7 d0 bd 6b 7a 6e bd
       0.25024027 0.14852142 -0.101973265 -0.058222216
000150 74 7b 95 bd bf 7e 52 bb d1 55 69 3e 79 22 28 3d
       -0.072989374 -0.0032119004 0.22786643 0.0410485
000160 2d 52 93 bd 37 c4 9b 3e 7b f2 9c bd de c9 b7 3d
       -0.07193408 0.30423138 -0.07663437 0.0897405
000170 ed b4 b5 3d 31 fb c7 3e ab c5 eb 3e cf 55 15 3e
       0.088723995 0.3905883 0.46049246 0.14583515
000180 eb 49 6b 3d 55 76 97 3e 96 df ef bd f8 2f 1d 3e
       0.05744354 0.29582468 -0.117125675 0.1535033
000190 64 27 d6 bd 70 99 b3 3e 46 d7 95 3e 03 03 ab 3e
       -0.10456732 0.35078 0.29265803 0.33400735
0001a0 1a 54 bc 3e 85 82 ef bd 9b c9 22 3e 1a 1c 28 be
       0.36782914 -0.116948165 0.15897219 -0.1641697
0001b0 8f 0f e3 3d 69 fc 05 3e 12 44 02 3f 31 79 b6 3e
       0.11086952 0.13084568 0.5088512 0.35639337
0001c0 53 41 9b 3e ad 7a 79 3e d9 2f 86 3e a2 b8 24 be
       0.30323276 0.24363203 0.2620838 -0.16086057
0001d0 9b 3e be be 14 4d 80 bb 49 3e b0 3e 37 35 a9 3e
       -0.3715714 -0.0039154384 0.3442252 0.33048412
0001e0 c9 34 82 be 84 85 b6 3e fa 5c 3f be 58 31 8a bc
       -0.25430897 0.3564874 -0.18687811 -0.016869232
0001f0 07 16 2e 3e fc a4 2d 3e ae f4 b2 3e 16 31 95 3e
       0.1700059 0.16957468 0.349523 0.29139012
000200 00 06 30 3e c5 fc 2d 3e c7 84 c1 3e 7b a1 b7 3c
       0.17189789 0.16990955 0.37796614 0.022415867
000210 54 5b 77 3e 92 6c e2 3d a8 f0 2e 3d 65 5a 24 be
       0.24155933 0.110558644 0.042709976 -0.16050108
000220 76 6e 75 bd 50 c7 6a 3e d5 0f 4b be d8 9a a8 3e
       -0.059919797 0.22927594 -0.19830258 0.32930636
000230 0d 21 52 3e 25 c8 c8 3e ab 46 aa 3e ad 9e 31 be
       0.2052042 0.39215198 0.3325704 -0.17345686
000240 50 52 93 3d d4 dc 98 3e 75 f3 85 3d 6c c2 44 3e
       0.07193434 0.29855978 0.06540576 0.19214791
000250 55 86 11 3f 16 d0 2c 3e 50 18 ae bd 9d 99 50 3e
       0.568456 0.16876253 -0.08500731 0.20371099
000260 fb 6c 7b 3e 37 8c 72 3d f7 d6 a9 3e 77 de c9 3e
       0.24553291 0.05921575 0.33171818 0.3942754
000270 fe 5d 40 bd ff a6 27 be ab 5e 15 be 4d a6 a0 bd
       -0.046964638 -0.16372298 -0.14586894 -0.07844219
000280 2e df 4f be 1c 13 a6 be 7e 08 e1 3e ae 39 a6 be
       -0.2029998 -0.32436454 0.43951792 -0.3246588
000290 05 99 89 3e 08 7a d1 3e 93 62 c9 bd 74 71 f8 3e
       0.26874557 0.40913415 -0.09833255 0.48524058
0002a0 ef 06 04 3f 2d 22 bd 3e b1 7d 06 3f cd c6 9f 3d
       0.5157308 0.36940137 0.5253554 0.0780159
0002b0 b1 db 1c 3a e4 9a 85 be 87 18 a6 be 10 21 f6 3e
       0.00059836643 -0.26094735 -0.32440588 0.480721
0002c0 75 79 30 3e b5 e7 02 be f8 e7 bf bc 0d fe bc 3e
       0.17233832 -0.12783702 -0.023426041 0.36912575
0002d0 51 66 04 3f 29 00 67 3e 0a 84 b0 3e 69 50 69 be
       0.5171862 0.22558655 0.34475738 -0.2278458
0002e0 1e dc 94 3e a1 ae 49 be 54 cd c8 3e f6 54 46 3e
       0.29074186 -0.19695522 0.39219153 0.19368348
0002f0 5d bd cf 3e c0 ae e2 3e af 78 91 3e 10 0c d1 3e
       0.4057416 0.4427395 0.28412387 0.40829515
000300 52 fc 25 be fc 53 9e 3e bc 40 36 be 93 34 2f be
       -0.16209534 0.3092345 -0.17798132 -0.17109899
000310 12 d1 9d 3d a2 b6 b4 3d ec 97 ad 3d fc 14 8d 3e
       0.077058926 0.08823897 0.084762424 0.27555072
000320 31 c5 c2 3e f5 3a 40 be 9c 4a 80 3e 5d 34 15 3e
       0.3804107 -0.1877249 0.25056922 0.14570756
000330 3a 04 cb bd 30 8d 64 bd d1 ac cc bc 52 4e cf 3e
       -0.099129155 -0.05579871 -0.024984749 0.4048944
000340 1d eb be 3e fd 46 f8 bd 7c e9 df bd 9c 17 1f be
       0.37288752 -0.12122915 -0.109332055 -0.1553635
000350 4c d6 53 be 31 11 28 3d af 77 b3 3e 3a 3e 53 bd
       -0.20687217 0.04103202 0.3505225 -0.051573016
000360 3c 0a 99 bc 80 38 89 bc ea bd 14 3c a2 25 14 be
       -0.018681638 -0.016750574 0.009078482 -0.14467481
000370 65 3f 61 3e 1c 2c 5c 3e dc 9b de 3e f3 7e 13 3e
       0.2199684 0.21501201 0.43478286 0.14403896
000380 f0 fc df bc c8 b7 47 3d 84 61 1c 3e a7 44 07 be
       -0.02734229 0.04875925 0.15271574 -0.13209783
000390 c5 71 b2 bd 7e 23 07 be 83 3d 1b 3e 3e 50 c4 3d
       -0.08713106 -0.13197133 0.15160184 0.095856175
0003a0 8c 36 2b 3d 38 3d 02 3d c6 cf f6 3d 58 37 a1 3d
       0.041800067 0.031796664 0.120513484 0.07871884
0003b0 69 bf 02 3e 00 f0 1b 3d 6a 77 8d bd e3 63 31 be
       0.1276833 0.03807068 -0.06907542 -0.1732326
0003c0 00 fa f2 ba 3b d1 c1 bd 2c 21 05 be 2c f1 36 bd
       -0.001853764 -0.09463736 -0.13000935 -0.044663593
0003d0 56 a9 6d 3d eb 83 8b bd 5c 98 01 3d c0 bf 19 bc
       0.05802282 -0.06812271 0.03163944 -0.009384096
0003e0 44 47 1b bd 8e c6 e1 bd 50 0d 6b bc a0 03 c2 3c
       -0.03790976 -0.110241994 -0.014346436 0.02368337
0003f0 34 a3 92 3d 10 0c 64 3c e0 39 23 3d 00 59 cc ba
       0.07160035 0.013918892 0.039850116 -0.0015590489

l1.0.bias f4 [8]
000000 7b 47 da 3e e6 4c 2c 3f 4d 81 95 3d 91 43 be 3e
       0.4263266 0.6730484 0.07300053 0.37160924
000010 86 89 e8 3e ff 0d a6 3e 00 7b 29 3e 14 5c 45 be
       0.45417422 0.32432553 0.16550827 -0.19273406

l2.0.weight f4 [8, 8]
000000 e2 70 53 bd 79 60 a1 3e de f1 a4 be 55 bf 1e be
       -0.051621325 0.31518915 -0.3221578 -0.15502675
000010 13 0d 49 3f 38 61 10 3f cd c9 0f bf fb e6 2b bd
       0.78535575 0.56398344 -0.561673 -0.041968327
000020 bf ad 22 bd 37 27 d0 3e f2 02 47 bd 8c 94 29 be
       -0.03971648 0.4065492 -0.048586793 -0.16560572
000030 0e e3 65 3f 0c d3 a1 3e 77 2d 08 bf e7 b1 b8 3e
       0.8979958 0.31606328 -0.53194374 0.3607323
000040 29 31 42 3e 35 10 70 3f 9a 16 08 3e 58 e1 d2 3e
       0.18964066 0.9377473 0.13289872 0.4118755
000050 fe 16 31 3e 7c 9d 42 bf b0 bf f2 3d f4 0c b8 bd
       0.17293927 -0.7602155 0.11852968 -0.089868456
000060 46 ec 78 3e 4a a8 57 3f b0 b1 16 3f ee b7 3e 3f
       0.24308881 0.84241164 0.5886488 0.74499404
000070 68 96 db bd 20 54 43 be e7 40 5d 3e 69 4f 23 be
       -0.10722047 -0.1907506 0.2160679 -0.15948261
000080 c8 20 11 3f eb 07 02 bf 12 94 24 3f cf 00 0a 3f
       0.56690645 -0.5079333 0.6428844 0.53907484
000090 48 8e 38 bf 03 96 3e 3f ac c2 2b 3f 2f ec c3 bd
       -0.72092104 0.7444765 0.6709392 -0.09566533
0000a0 fc 53 db 3e 22 fb 32 3e 22 70 0a 3f 58 5c 23 3f
       0.42837512 0.17478612 0.5407735 0.6381278
0000b0 5d a8 2c be 0b cd 7d bd 0d c8 28 3f bd 09 72 3e
       -0.168611 -0.061963122 0.65930253 0.23636527
0000c0 60 77 65 3f f3 75 18 3f 23 c0 90 3e d5 b4 2f 3f
       0.89635277 0.59554976 0.2827159 0.686353
0000d0 94 12 27 3e 1d 97 32 bf 61 a9 da 3b e8 ee 6d bd
       0.1631568 -0.6976183 0.0066730236 -0.058089167
0000e0 2d 97 7e be da 5e 71 be 44 33 1b bf 2b 75 e7 be
       -0.24862356 -0.23571339 -0.606251 -0.4520658
0000f0 c0 b9 5e 3f ad 11 22 3f 64 7a 16 bf a0 3b 45 bd
       0.8700218 0.6330822 -0.58780503 -0.048152566

l2.0.bias f4 [8]
000000 c1 8d 18 3f 87 dd 1d 3f ec 95 9d 3e 4d c7 fb 3d
       0.595913 0.6166615 0.30778444 0.12293873
000010 d5 2f 09 be 02 08 2a 3e 9b 08 a2 3e 63 6b ea 3e
       -0.13397153 0.16604617 0.3164719 0.45785055

l3.0.weight f4 [3, 8]
000000 18 38 15 3f 22 eb 7f 3e c5 9c 3a bf 47 ee cc be
       0.5828872 0.2499204 -0.7289546 -0.4002554
000010 3b 95 56 be 5e 30 10 bf c5 70 09 bf fd 86 1c 3f
       -0.20955364 -0.563238 -0.536877 0.61143476
000020 dd f5 38 bc 11 b7 50 be ec 4c 10 3f 19 30 05 3f
       -0.011289087 -0.20382334 0.56367373 0.52026516
000030 77 62 1d bf 37 b5 1f 3e 7d 66 dd 3e 4a c2 0e bf
       -0.6147837 0.15596472 0.43242255 -0.5576521
000040 08 cb 1e bf b3 d5 53 bf ce e8 af be 06 a0 89 3e
       -0.6202855 -0.82747954 -0.34357303 0.268799
000050 66 a5 30 3f ac b0 8e 3e 43 67 63 bc f0 d2 90 be
       0.6900238 0.27869165 -0.0138796 -0.28285933

l3.0.bias f4 [3]
000000 c0 26 bb 3e 81 c6 62 bd 71 24 97 be
       0.36553 -0.05536509 -0.2951999
